onnx_model.onnx (onnx, 791453 bytes, 12 tensors)

conv1.weight f4 [32, 1, 3, 3]
000000 54 81 fa 3c 34 a5 3b be 3a 0c aa 3d 23 7f b5 be
       0.030579247 -0.18324739 0.08303113 -0.3544856
000010 85 a6 83 3d 81 bf b7 bd 3e d6 22 3e 6f 33 4c 3e
       0.064282455 -0.08972073 0.1590204 0.19941495
000020 ae 11 4e bd fb ca d9 bd 85 4d 2c be a3 02 a1 be
       -0.05030983 -0.106344186 -0.16826446 -0.31447324
000030 a9 96 23 be 3e 1b d6 bd 82 90 6e bd a9 03 1c 3e
       -0.15975441 -0.10454415 -0.058243282 0.15235771
000040 da ea 33 be af 7e c3 bd 80 4f 78 be 12 68 cb be
       -0.17570058 -0.09545647 -0.24249077 -0.39727837
000050 8a 6c 1e 3e c4 c7 86 3e e3 bb a2 bd 3d 59 bc 3e
       0.15471092 0.26324284 -0.07945993 0.36786833
000060 dc 83 56 be 38 1e 10 3d db bc e7 be 84 c4 fd bd
       -0.20948738 0.03518507 -0.45261273 -0.12390998
000070 6d 5f 3a bc aa 18 8a bb f4 69 58 3e 36 90 bd be
       -0.01137529 -0.004214366 0.21134168 -0.37024087
000080 6a 6b d4 3a 7f ce 5e be 89 9c 3c 3e 61 1a 95 3d
       0.0016206328 -0.2175846 0.18419088 0.07280422
000090 22 c5 d3 bd 37 ea 8c be b5 8b bb bd 43 8d 63 be
       -0.103403345 -0.27522442 -0.091575064 -0.22221856
0000a0 cd 95 a6 bc 19 69 8a 3e ff dd 07 3d b3 0f 9b 3e
       -0.020335102 0.27033308 0.033170696 0.30285415
0000b0 0a a4 a4 3d 8a 24 60 3e 45 c2 2d be 07 4f 9a be
       0.080391005 0.21888939 -0.16968639 -0.30138418
0000c0 17 d4 a8 3c 9b ec 3b 3e df 87 fa bc 97 68 14 3e
       0.020608945 0.18351977 -0.030582367 0.14493023
0000d0 b6 07 0e 3e b5 c9 20 be 81 99 9d bd 31 89 19 3e
       0.13870129 -0.15701945 -0.07695294 0.1499374
0000e0 99 c0 8c be 2c 03 10 be 03 42 b9 bd 6e e5 4b be
       -0.2749069 -0.1406371 -0.09045794 -0.19911739
0000f0 8c a6 74 be b7 56 07 3c 8f 07 83 bd 9b 29 ec bc
       -0.23891658 0.0082604205 -0.06397926 -0.028828433
000100 44 07 74 bd 05 b6 c5 bd ef 39 21 3e f8 c6 23 3e
       -0.05957724 -0.09653858 0.15744756 0.1599387
000110 1f 76 40 be aa bd 33 3e bc df 95 be ed 4d d6 3d
       -0.1879506 0.1755282 -0.29272258 0.10464082
000120 ad f4 9d 3c 6e 31 42 3d 38 ed 67 3e 6e 56 bc 3d
       0.01928171 0.04741042 0.22649086 0.09196173
000130 93 6c f2 3c c6 55 5a be cb 3b ed be 7c 5c 85 be
       0.029592788 -0.21321782 -0.4633468 -0.26047122
000140 71 49 62 be cf 3e 99 3e 41 51 5c be a4 d4 53 bc
       -0.22098328 0.29930732 -0.21515371 -0.012929115
000150 16 b6 94 be 8b 17 53 3e 3d da 5b bd f9 97 4c 3d
       -0.2904517 0.2061445 -0.053674925 0.04994962
000160 5a 4e 7d bd a3 0d 0a 3e b0 75 67 be 7b a4 d2 be
       -0.0618423 0.13481764 -0.22603488 -0.41141114
000170 9b 93 2b 3e 32 09 d3 3e c3 ea 90 be 6e fe d0 bc
       0.16755526 0.41217953 -0.2830411 -0.025511947
000180 b5 23 83 3e 61 ba 1e 3d f3 3e 04 be 84 22 83 be
       0.2561318 0.038751964 -0.12914638 -0.2561227
000190 a8 d4 6b 3e d0 28 da 3d aa 95 32 3b 43 45 1a bd
       0.2303034 0.106523156 0.0027249851 -0.03766371
0001a0 fb 75 0c be 59 15 a2 be f8 1c 81 be a5 38 8b be
       -0.13716881 -0.31656912 -0.25217414 -0.27191654
0001b0 78 89 d9 3d 09 80 87 3e 19 4a 98 3e fc dd 6d be
       0.10621923 0.2646487 0.29744032 -0.23229212
0001c0 d8 31 98 3e 26 eb d0 bd 78 d6 b0 be ec 26 70 be
       0.29725528 -0.10201101 -0.34538627 -0.23452348
0001d0 88 c1 e9 bd 5c 0d b3 bc 8d 06 a0 be cd d1 18 be
       -0.11413866 -0.021856956 -0.31254998 -0.14923783
0001e0 5e 44 a0 3e 94 cf 76 bd 2d c4 9a 3c 6d 0b 9b 3d
       0.3130216 -0.060256556 0.018892372 0.07570539
0001f0 a2 5b 94 3e 0b 45 f2 bd a3 4a ca bc d7 10 97 3d
       0.2897616 -0.11829575 -0.024693793 0.07376259
000200 6f c8 aa bd bf d8 4b bc 7a 38 ab 3d cf 49 b5 3d
       -0.08339011 -0.012441813 0.083603814 0.088519685
000210 02 a7 33 3e c0 50 bf be dd 0b f8 3d 69 25 37 be
       0.17544177 -0.37366295 0.12111638 -0.17885365
000220 9f ba 9b be fa e4 cd bd ff 2e 56 3e 06 ce e6 3d
       -0.30415818 -0.100534394 0.20916365 0.112697646
000230 ff a7 0f 3e ad 78 06 3e 57 18 3b bc d2 5f f7 3d
       0.14028929 0.13131972 -0.011419377 0.12078823
000240 7b 76 ba bd 83 21 0d 3e b0 79 b3 be 16 5c 98 3e
       -0.091046296 0.13782315 -0.35053778 0.29757756
000250 a3 f1 8e 3e ad 59 9b be ea ff 52 bd a9 53 0c be
       0.2791873 -0.30341855 -0.05151359 -0.13703789
000260 2c 47 85 3e d4 e3 1f 3c e2 a5 82 be 6f 07 5e 3d
       0.26030862 0.009758908 -0.25517184 0.054206308
000270 27 47 4a bc 42 58 9c be f9 e2 5a 3e 19 37 82 be
       -0.012346066 -0.30536085 0.21375646 -0.2543266
000280 79 e4 46 be c1 59 84 3e b2 56 19 be e8 0c 27 3e
       -0.19423093 0.25849727 -0.14974478 0.16313517
000290 6b 4c 8b 3d cb 84 a3 be 1b fd ac be d4 55 24 3d
       0.06801685 -0.3193725 -0.33786854 0.040120915
0002a0 5c 49 b2 3e 89 a6 40 be 01 3b aa be ff 20 3f 3e
       0.34821594 -0.18813528 -0.3324814 0.18664931
0002b0 2d f9 63 be c0 ce f9 3d 23 24 38 be d4 3c 93 3d
       -0.22263022 0.121976376 -0.17982535 0.071893364
0002c0 0d 20 47 be 76 03 a0 3d bc 94 0a 3e 28 01 e5 3d
       -0.1944582 0.0781316 0.135333 0.11181861
0002d0 e5 82 5e 3e 3b 15 b9 3e 8f be e9 bd 75 bc 69 3e
       0.2172962 0.3614901 -0.11413299 0.22825797
0002e0 06 2a 83 be a9 47 cd be 02 a9 25 3c 70 08 55 be
       -0.25618 -0.40093735 0.010111095 -0.20804
0002f0 28 dc 10 3e 59 81 43 3e 59 00 ff bd ba 45 08 be
       0.14146483 0.19092311 -0.12451238 -0.13307849
000300 3c de 96 3d 12 a5 ce 3c 11 ab cd be 10 bd 79 3e
       0.073666066 0.025225196 -0.40169576 0.24388528
000310 99 89 91 be af 76 bd 3e 3e 27 7d 3c 65 30 23 be
       -0.2842529 0.3700461 0.015451251 -0.1593643
000320 b1 ca 87 3e 15 c3 49 be 04 e9 cc 3d 48 a1 29 3e
       0.2652183 -0.19703324 0.10005382 0.1656543
000330 9a 4d 07 bd dd 71 bc be 7c 3b 69 be e6 c6 07 3c
       -0.03303299 -0.3680562 -0.22776598 0.008287167
000340 6d 5f 95 be 29 0a 8c bc 13 94 0c 3e 4a 1a 02 3e
       -0.29174367 -0.017094688 0.13728361 0.12705341
000350 a3 a5 6a 3d 96 68 71 be 68 62 36 bd 92 05 bd 3c
       0.05728687 -0.23575053 -0.04452744 0.023073945
000360 9f 6e ba 3d 7b fb 76 3e 19 46 65 3e 57 d8 2c 3e
       0.091031305 0.2411937 0.22390021 0.16879402
000370 8f 2d 6f be 2d 87 53 be a9 2a 20 be 2a e7 65 be
       -0.23357223 -0.20657034 -0.15641274 -0.22451463
000380 58 14 e4 bd 07 4b a5 be 3f 23 26 3e ca a2 a9 bc
       -0.11136693 -0.32283804 0.16224383 -0.020707507
000390 ec 26 49 be 47 57 a4 3e 2a 80 21 be 03 02 29 3e
       -0.19643754 0.32097837 -0.15771547 0.16504674
0003a0 9c 95 9c bb 1a 14 30 3e e6 f0 3f 3e 6a cc 2c 3e
       -0.004778577 0.17195168 0.18744239 0.16874853
0003b0 1a f9 83 3e 6d b5 91 be cc cc a8 3d 65 d5 29 3e
       0.25775987 -0.2845873 0.08242187 0.1658531
0003c0 50 e1 af be cf 3b b7 be f5 b2 83 3d 97 1c df 3d
       -0.34351587 -0.35787818 0.06430618 0.10894125
0003d0 9f 67 8a 3d eb 32 9f be 47 ef 01 be 11 ec 8c 3e
       0.067580454 -0.31093535 -0.12688933 0.27523854
0003e0 6a 28 aa be ae 19 24 be 06 e4 67 3e e9 1b 44 3e
       -0.33233958 -0.16025421 0.22645578 0.19151272
0003f0 0b d9 e4 bd df 03 dc 3d 24 7b 3e 3e 54 05 a4 3d
       -0.1117421 0.10742926 0.18601662 0.08008829

conv1.bias f4 [32]
000000 80 b0 65 3d 94 90 54 be 8a 3a 64 be 2b ed 35 3d
       0.056076527 -0.20758277 -0.22287956 0.044415634
000010 80 4f c3 3d 01 48 e7 bb f5 18 5b be b7 f2 c0 bd
       0.09536648 -0.007058144 -0.21396239 -0.09421294
000020 59 e2 4a be b4 f3 98 be bd e4 da bd 63 d0 36 be
       -0.19812907 -0.2987343 -0.106881596 -0.1785293
000030 9b 47 35 bd 67 2a d9 bb 8f 1d 04 be 4a 95 d8 39
       -0.04425774 -0.006627369 -0.129019 0.0004130996
000040 b0 1f 05 bd 8a ef 48 bd 45 be 7f bd 36 9c 6f 3d
       -0.032500923 -0.049056567 -0.062437315 0.058498584
000050 ff d4 33 be 59 e3 de 3d a0 de f3 bd 2e 4c 36 bd
       -0.1756172 0.10883207 -0.11907697 -0.044506244
000060 e7 60 29 3d 46 98 66 3c cb df 3a 3e e9 71 7e be
       0.04135218 0.014074391 0.18249433 -0.24848141
000070 93 6d b9 be 14 09 33 3b f4 d3 8e be 2e cd 71 be
       -0.3621641 0.0027318643 -0.27896082 -0.23613426

conv2.weight f4 [32, 32, 3, 3]
000000 6f 0e 51 bd 4d 55 10 3a 79 7c 47 3c 6c b0 66 bd
       -0.051039156 0.0005505875 0.012175673 -0.056320593
000010 64 52 09 3d e8 da 87 3d 21 28 94 bd d9 0a 16 be
       0.03352584 0.0663355 -0.072342165 -0.14652576
000020 02 75 05 3d d0 b0 24 bd d6 6a e8 3c d1 1a 97 bc
       0.03258229 -0.040207684 0.028371256 -0.018445404
000030 f5 9d 8a 3d bc bf 69 ba 64 6a 5a bd 81 83 9a 3d
       0.06768409 -0.0008916815 -0.05332412 0.07544614
000040 56 56 99 bc af 87 57 bd a2 c8 e0 bc 05 db 8f ba
       -0.018717926 -0.052619632 -0.02743942 -0.0010975307
000050 dc ea 8b 3c e8 0b 1a 3c d0 b7 31 bd 57 8c 79 3a
       0.017079763 0.009402253 -0.043388188 0.00095195085
000060 96 76 09 3e 07 dc 00 3d 64 0f 7c bd 7c 4d 0c be
       0.13424143 0.031459834 -0.061538115 -0.13701433
000070 04 d9 78 bb f6 59 42 3d 89 e9 50 3d ce eb c4 bb
       -0.0037971148 0.047449075 0.051003966 -0.0060095554
000080 88 d4 9f 3d 33 01 04 be ab a5 50 3d b5 05 1c 3c
       0.07804209 -0.12891082 0.050939243 0.009522845
000090 f7 6b 09 bc 9c 33 2b bd 4d 90 96 3c b9 8a 62 bd
       -0.008387557 -0.041797265 0.018379355 -0.055308077
0000a0 2d ea 81 3d 0b cf 68 3d 9e a5 00 be 3a 9d fe bc
       0.063434936 0.056838077 -0.12563178 -0.03108083
0000b0 2f 37 4a 3d 58 60 36 3c 85 22 a7 bd 9c a0 8f bd
       0.049369033 0.011131369 -0.08160881 -0.07013056
0000c0 6e cc 89 bd ca fc 4f be 25 00 24 b9 96 12 4b be
       -0.06728445 -0.20311275 -0.00015640313 -0.19831309
0000d0 9a e6 48 be cc 8f 0b 3d 6a 37 3d bd 3c 68 d1 bb
       -0.19619218 0.034072682 -0.046195425 -0.0063905995
0000e0 5f 7d 36 bd 5c 42 66 3d b5 3e 1f bc 57 e9 b7 bd
       -0.044553157 0.05621563 -0.00971954 -0.08980053
0000f0 bd 17 08 bd 17 44 63 bd a8 fe 84 bd cc 1f ef 3d
       -0.033225764 -0.055484857 -0.06493884 0.11675987
000100 d0 17 35 be d4 62 07 be 1b ca 3d 3d 59 95 4f be
       -0.17684865 -0.13221294 0.04633532 -0.20271815
000110 b8 2d 04 3d 5c d8 56 bd 11 87 86 bd 37 56 47 bc
       0.032270163 -0.05245243 -0.065687306 -0.012166551
000120 46 9e 8b 3b 6b e8 87 be 52 92 1f be 04 fe 6e be
       0.004260811 -0.26544508 -0.1558316 -0.23339087
000130 6f 1c 22 be 94 dd a4 3a 70 09 77 be ec 88 3c be
       -0.15831159 0.0012578242 -0.24124694 -0.18411607
000140 00 bf b7 bd 2d c6 79 bd 00 0f ad bc fb 39 ce 3d
       -0.08971977 -0.06098001 -0.021125317 0.10069653
000150 5d 51 03 3d 0d 31 ca 3d 97 ce 20 3d 0b cb 58 bc
       0.032060016 0.09872637 0.03925952 -0.013232003
000160 f3 83 59 3c 98 78 35 3d fd 82 fe 3c e2 d5 ae be
       0.013276088 0.04430446 0.03106832 -0.34147555
000170 37 82 82 be ec 64 ea bc fd 20 74 be a0 b0 6d bd
       -0.2548997 -0.028612576 -0.23840709 -0.05802977
000180 ba df 5a bd 85 14 6a be e2 f4 03 be 8b 07 d5 b8
       -0.05343602 -0.2285939 -0.12886384 -0.000101580365
000190 3f 55 52 be fa c9 0d bd ba 74 bb bd 0f 09 f0 bc
       -0.20540331 -0.034616448 -0.09153123 -0.029301194
0001a0 c0 6c d0 bb df 4b 07 3b 3a 1c fd bd 8f 56 03 be
       -0.0063606203 0.0020644588 -0.123588994 -0.12825988
0001b0 3b 26 f1 3c ff 9f 25 be 12 fa d9 3c 67 cd 16 be
       0.029437175 -0.16174315 0.0266085 -0.14726792
0001c0 e8 a1 c2 bd 5f 67 5f 3d ac 62 6a be 2a 50 73 3c
       -0.095035374 0.05454194 -0.22889203 0.014850656
0001d0 f0 60 db 3d 2f de f9 bc b5 c2 c3 be b8 79 1f be
       0.10711849 -0.030501453 -0.38234487 -0.15573776
0001e0 e5 fe 64 bd c1 fa 54 be 70 67 74 3c a5 70 36 be
       -0.05590715 -0.2079878 0.01491724 -0.17816408
0001f0 7a ce 5d be c7 0f b8 3c 45 7c 9e 3d 13 75 96 3c
       -0.21660796 0.02246846 0.07738546 0.018366372
000200 61 d6 15 bd 98 34 4b 3b 35 67 5a bc 8d 06 9b 3d
       -0.0365814 0.003100669 -0.013330271 0.07569609
000210 71 3c 9d bb e4 05 09 3d 65 8a 79 3d 1f eb c0 bd
       -0.004798465 0.033452883 0.060923 -0.09419846
000220 4b b0 97 bd 60 5b 3b 3d 77 41 81 bd 0f f1 8f 3d
       -0.07406672 0.04574144 -0.063113146 0.070284
000230 17 0b 17 3d 30 22 4a bd 87 04 01 3c a8 ba 89 3d
       0.03687581 -0.04934901 0.007874615 0.06725055
000240 89 eb aa 3d 8a 45 a3 3d f9 45 af be 4f cc 48 3d
       0.08345706 0.07972248 -0.34233072 0.04902297
000250 aa e7 95 be 3c 95 11 be d1 45 8a bd de b7 42 be
       -0.29278308 -0.14217085 -0.06751598 -0.19015452
000260 0d ef 0a be 28 63 d5 bc e3 d1 da 3c 87 cb 14 3d
       -0.13567753 -0.026048258 0.02671141 0.03632691
000270 3f 44 77 3d 37 39 73 3d 02 c8 0f 3c 82 35 3c 3d
       0.06036782 0.059380736 0.008775713 0.045949467
000280 2a d8 f6 3d bf 24 25 bd e8 05 9b bc 87 1e 46 bd
       0.12052949 -0.040318247 -0.018923715 -0.048368957
000290 f2 ac f4 bc f9 70 6e 3d fe 0a a0 bd 3c 50 94 bb
       -0.029867623 0.058213208 -0.078145966 -0.0045261662
0002a0 dc 12 a2 3d f7 8d cd bc 5a 02 43 ba 3d f8 2a bd
       0.079137534 -0.025092108 -0.000743901 -0.041740645
0002b0 9f 8b 16 b9 78 0e 91 3d c6 36 5f bd 7b 65 2d bb
       -0.00014357128 0.07082838 -0.054495595 -0.0026458192
0002c0 fb 70 b1 3d ff 94 86 bd 92 3f b3 bd 97 31 2f bd
       0.086641274 -0.065713875 -0.087523594 -0.042771902
0002d0 38 d2 46 3e 20 e5 60 3d 90 f9 88 be e5 d4 05 3e
       0.1941613 0.05490601 -0.267529 0.13069494
0002e0 90 8e e4 bd 41 37 82 be 69 db 49 3d b9 47 1d be
       -0.11160004 -0.2543278 0.04928151 -0.15359391
0002f0 21 1f fd 3c eb e0 8e 3d 48 ab d3 3c 89 96 9f bb
       0.030898632 0.069764934 0.02583851 -0.00487024
000300 86 95 b2 3c c8 04 1f bd 51 f2 1d 3d 2b ec ec bc
       0.021799814 -0.03882292 0.03856117 -0.028921207
000310 21 12 85 bd 37 f1 b3 bd e3 4b 63 be 49 19 09 be
       -0.064975984 -0.087862425 -0.22196917 -0.13388552
000320 47 33 2a bd b4 93 82 be 8e 59 4a 3d 8e 0a 23 3b
       -0.041552808 -0.25503314 0.049401812 0.0024878117
000330 c8 a3 00 bb 41 4d be 3d 17 f4 24 bd dd fb 98 bd
       -0.0019628871 0.09292079 -0.040271845 -0.07469914
000340 da aa 45 bd 75 3b 67 bc b2 db fb 3b 02 1d db 3d
       -0.04825864 -0.014113297 0.007686102 0.10698892
000350 d4 f4 76 3b ac c9 b5 bb 36 25 b0 3d be f4 c3 3d
       0.003768255 -0.005547723 0.086008474 0.09568165
000360 58 2d 24 3e a3 65 5e bd 73 71 43 be 95 0e c1 bc
       0.16032922 -0.054296147 -0.19086246 -0.023566524
000370 72 0b 06 be b1 9e 61 bd 17 53 e7 bd e9 98 58 be
       -0.13090304 -0.05508298 -0.11295145 -0.2115208
000380 bd d7 e0 bc c0 2e c9 bd 8d 33 c8 bd c1 ed 9d 3d
       -0.027446622 -0.0982337 -0.097754575 0.077113636
000390 17 ac f3 bd c5 c1 2c 3c d8 b9 9e 3d c9 19 5c be
       -0.11898058 0.010544245 0.07750291 -0.21494211
0003a0 f4 d9 45 3d 82 ab 1c 3d c5 d1 a4 3c f9 e4 19 3b
       0.04830356 0.0382495 0.020119557 0.0023482426
0003b0 78 31 4e bc fd c3 64 3a a0 38 87 bd 6f 78 82 bb
       -0.012585036 0.00087267143 -0.06602597 -0.003981642
0003c0 fe fd 3c bd 4c 47 ba 3d e8 8e 44 3d db d5 1a bd
       -0.046140663 0.0909563 0.04798785 -0.037801605
0003d0 cf cd bb 3d 07 a6 20 3c 28 ac 16 be ba e5 07 3e
       0.09170114 0.009805209 -0.1471411 0.13271227
0003e0 91 a8 24 bd a8 d7 91 be 62 c5 a7 bc 81 72 da bd
       -0.04019982 -0.28484845 -0.020479862 -0.10666371
0003f0 c7 1d ea bd 85 3f 34 bc 45 45 43 bc 7d 23 ce bd
       -0.11431461 -0.011001472 -0.011918371 -0.100653626

conv2.bias f4 [32]
000000 9f e2 21 3c 4f e0 84 3b e5 40 bb 3d 07 e7 8b 3d
       0.009880691 0.00405506 0.09143237 0.06831174
000010 14 c2 70 3d 68 1a fd 3d 1e 26 d6 3d 5c fd a0 bc
       0.058778837 0.12358552 0.10456489 -0.019652061
000020 01 3a b1 3d 7c 12 09 3d 4e 5f 2d bd 7d 35 4d bd
       0.086536415 0.033464894 -0.042327218 -0.05009984
000030 2f 7f 7e bd 78 06 cc bc 48 0b 08 bd 7e 7f a4 3d
       -0.06213301 -0.024905428 -0.033213884 0.0803213
000040 22 c3 33 bc 25 dd 85 3a 57 01 79 bc 4b c3 4b 3d
       -0.010971816 0.0010213001 -0.015198073 0.049746793
000050 58 e5 31 3d cb 84 a9 3d 09 12 85 3d e7 9f b2 3d
       0.04343161 0.082772814 0.064975806 0.08721905
000060 c3 49 a0 3c 78 48 61 3d b8 80 60 bb d9 10 bc 3d
       0.019566422 0.055000752 -0.003425641 0.09182901
000070 ca ba 2f bc 40 cc bf bc 96 4d 1c 3d 63 da c9 bc
       -0.010725686 -0.023412824 0.03815993 -0.024640268

conv3.weight f4 [64, 32, 3, 3]
000000 a5 a0 ac 3d 35 a4 33 3d 71 09 e8 3c a7 62 d7 bd
       0.08429078 0.043857772 0.028324815 -0.10516863
000010 ad 59 de 3b 04 6c db bc 58 06 c3 bd 5c 83 58 bd
       0.0067855925 -0.026784904 -0.09522694 -0.05285965
000020 8e ad a5 3c c5 8b 05 3e ca 52 f5 3b 68 d3 ac 3d
       0.020224359 0.13041599 0.007486676 0.0843876
000030 b9 e2 e0 3c 21 bc 7d bd 24 40 a3 3d 1f ff 9f bd
       0.02745186 -0.06194699 0.07971218 -0.07812332
000040 9e 50 f3 bd 18 1c 4a bd ef 3c 19 bd 87 8e d0 bc
       -0.11880611 -0.0493432 -0.037411626 -0.025458587
000050 be db 58 bc 55 bd 82 bd 10 a4 a0 3c fb cb 52 3d
       -0.013235984 -0.063837685 0.019609481 0.051464062
000060 35 73 5a 3d f4 63 39 3e 30 4c b5 bd 73 2b 31 be
       0.053332526 0.18104535 -0.08852422 -0.17301731
000070 ef a5 5a bd 21 bc 62 bd 13 75 90 3d 1c 3e 4d 3b
       -0.053380903 -0.055355195 0.0705358 0.0031317538
000080 92 c9 d5 bc 18 6c 03 3e c9 1c 4e 3c 19 13 93 be
       -0.026097093 0.12834203 0.012580105 -0.28725508
000090 7e 34 c8 bb 2f 3b 78 bc 9a af 26 bd 0e 36 d9 bb
       -0.006109773 -0.015150829 -0.04069481 -0.0066287583
0000a0 70 a4 d2 3d c6 af 17 3e 26 ac 76 bd 67 1f a2 3d
       0.1028527 0.14813146 -0.060222767 0.07916146
0000b0 59 49 5a 3d 84 43 cf bd 88 8b 8d 3d 93 18 7d 3c
       0.053292606 -0.101202995 0.06911379 0.0154477535
0000c0 59 47 03 3c 71 e5 1a 3b ed 52 7e 3d 88 4e a6 3d
       0.008012616 0.0023635293 0.062090803 0.081204474
0000d0 25 88 17 3d 0b 5a a5 3d 5c b6 b3 3d de eb 9c 3c
       0.036995072 0.08073815 0.08775017 0.019155439
0000e0 bd 13 db 3c ac f5 af bd c1 fe db bd ff b4 db 3d
       0.02674281 -0.0859178 -0.1074195 0.10727882
0000f0 76 68 de 3d 1f d1 c5 bc c2 d4 30 3e 94 a7 2a be
       0.10859768 -0.024147568 0.1726866 -0.16665488
000100 4d 44 3c be b9 0b 82 bd 92 55 dc bb 8d 0d 16 bd
       -0.1838543 -0.06349892 -0.006724068 -0.036634017
000110 2c 99 d2 bd 93 16 1e 3d 95 b3 cb bd b0 77 a5 be
       -0.102831215 0.038595747 -0.09946362 -0.32317877
000120 61 b0 cb bc 29 72 d5 bd 2f 85 4c 3d da 78 7e bd
       -0.024864377 -0.10422165 0.0499317 -0.06212697
000130 d4 b7 05 be 93 5e d4 3c a0 82 d1 3d d9 3b 01 3d
       -0.13058406 0.025924003 0.10229993 0.031551216
000140 1f 48 ba 3d dd f5 48 bd 49 71 99 bd 62 b2 ed 3c
       0.09095787 -0.0490626 -0.074923106 0.029015724
000150 79 0c 66 bc d7 e4 35 bc 8f a8 66 3d c0 06 24 3d
       -0.01404106 -0.011101923 0.056313094 0.0400455
000160 5d 58 b4 3d 4f 05 92 bd fc a6 46 be 52 f4 3c be
       0.088059165 -0.07129919 -0.19399637 -0.18452576
000170 cc ba 8d bd 8a b8 68 be 3e 6d 15 be ac cc 01 be
       -0.06920394 -0.22726646 -0.14592454 -0.12675732
000180 44 5c b9 3d e7 1a a4 bd 3c 1a 3c be ee 25 bf 3d
       0.090508014 -0.08012944 -0.18369383 0.093334064
000190 58 aa a5 3d 2b 4e 26 bc 26 68 6b bc 3f 1d 6a 3d
       0.08089131 -0.010150473 -0.014368093 0.057156797
0001a0 a5 c4 78 bc 1e a6 b6 bd af ed 0f bd a7 ff b8 bc
       -0.015183602 -0.08918403 -0.035138782 -0.022582842
0001b0 be 35 a7 3d f0 af a7 3d 01 dd 1e 3d c7 41 7f bd
       0.081645474 0.08187854 0.038784984 -0.06231859
0001c0 6b ba be 3c 21 5a 03 bd 6e 35 e1 3c c9 52 23 3d
       0.02328225 -0.032068375 0.027491298 0.039873872
0001d0 00 aa fc bc 90 f4 a9 bd 7e 35 f0 bd af 8f 58 3d
       -0.030842781 -0.082986 -0.11728953 0.052871402
0001e0 45 1d 86 bd b8 41 ed bc 12 8a f8 bd 2c 3a 30 3e
       -0.065485515 -0.028962001 -0.1213571 0.17209691
0001f0 9e ce c9 bd 86 f3 c9 be 68 e8 05 be 0f fb 1e 3c
       -0.09853862 -0.39443606 -0.13076937 0.009703412
000200 3b f5 ba 3d 95 3e 0e 3e 91 85 cc bc 38 f0 84 3d
       0.09128805 0.1389106 -0.024966033 0.064911306
000210 6f 5c 13 3e 85 2b e1 bd 4f 3b 49 be cb 41 d6 bd
       0.1439073 -0.10994629 -0.1965153 -0.10461768
000220 b3 36 e3 bb 0c ec b3 3d d8 e0 b4 bd 4c d7 92 bd
       -0.006934011 0.08785257 -0.08831948 -0.07169971
000230 f1 f1 ea 3c 6c 84 13 3e 9c ba 42 3d b2 ef 98 bd
       0.02867982 0.14405984 0.047541246 -0.07467593
000240 72 67 fa 3c 24 c4 c0 bd 8e 0a 0a be 17 10 83 bd
       0.030566905 -0.09412411 -0.13480589 -0.06399553
000250 32 c2 99 bd e7 b7 3c be 45 82 4e be 1e f5 67 bd
       -0.07507743 -0.18429528 -0.20166881 -0.056630246
000260 ad 8b 66 be d8 98 4b 3d 59 86 20 3d 5f ba d9 bd
       -0.2251422 0.04970631 0.039190624 -0.106312506
000270 05 3c 93 3d 9e d8 a5 3b c4 43 0c be 85 41 8c 3c
       0.07189182 0.005061223 -0.13697726 0.017121086
000280 eb e3 22 be 37 7a e6 bd f2 74 5b 3d 6a 25 94 3d
       -0.15907256 -0.112537794 0.053578325 0.07233699
000290 49 a6 60 3e bc fd f6 3d de b3 a3 bc 76 c6 09 3d
       0.21938433 0.12060115 -0.019983228 0.033636533
0002a0 2e 4e e0 3c 07 63 05 be 91 35 89 bd ba cb 4a bc
       0.027381029 -0.13026057 -0.0669967 -0.012377674
0002b0 b6 f0 8b bd b3 97 85 bc de a6 17 3d 06 c5 8e 3d
       -0.06833021 -0.016307687 0.03702437 0.06971173
0002c0 88 92 13 be c3 03 14 be 31 8a 2a bd fb ef 64 be
       -0.14411366 -0.1445456 -0.041635696 -0.2235717
0002d0 8d a7 25 be af db 8b bd b3 dd 54 bd 9b 49 2d 3c
       -0.16177197 -0.06829011 -0.05196924 0.010576631
0002e0 f9 bb 1f bd a9 a7 19 bd 01 65 e8 3d 8c 41 3b 3d
       -0.038997624 -0.03751341 0.1134739 0.045716807
0002f0 99 2c 0d be 41 e4 2c be 0c ce 85 bd be 24 af 3d
       -0.13786544 -0.16883947 -0.06533441 0.0855193
000300 78 74 d8 3a 02 b0 e9 3c f6 f1 76 3c bf 2f 2b 3e
       0.0016514203 0.02852631 0.015072336 0.16717432
000310 b4 a0 52 3d 57 ee 8f bd e9 73 10 bd bd d8 fe bc
       0.05142279 -0.070278816 -0.03526679 -0.031109208
000320 18 2b 0d 3d ba 3c 99 bd b3 65 61 bd 43 55 c0 3d
       0.034464926 -0.07482286 -0.05502863 0.093912624
000330 26 73 d8 3d b4 d8 25 3d db 4c 26 bd 6e 61 c6 bc
       0.10568838 0.040489867 -0.04060064 -0.02421638
000340 04 db cf ba d9 49 4e 3d 7c b6 60 3b 44 94 3f bd
       -0.0015858118 0.050363395 0.0034288457 -0.046772256
000350 7f 91 ca 3c 88 14 65 3d f0 2a d0 bc 44 34 fa 3d
       0.024727581 0.055927783 -0.0254111 0.12217
000360 ec 73 26 bd cb ec 8e bd ab 54 b8 3c b5 19 82 bb
       -0.040637895 -0.069787584 0.02250131 -0.0039703497
000370 2a e3 93 bd 4a 8b c2 3d f8 b7 87 bb 38 a1 2e bc
       -0.072210625 0.094992235 -0.004141804 -0.010658555
000380 ef 21 db 3c a4 20 99 bd 17 23 ba bd 38 eb a8 3c
       0.02674958 -0.07476929 -0.09088724 0.020619974
000390 4a 64 01 bc 5f d3 2c 3d 45 d8 1e 3e 60 fb f6 3c
       -0.007897446 0.042193767 0.15512188 0.030149162
0003a0 5d b9 73 3d a3 4b 9a bb be 7b ee bd 87 e4 af bd
       0.059502948 -0.0047087236 -0.11644696 -0.0858851
0003b0 cf 5f 66 bd e6 20 44 bd 46 63 fb 3c e2 7c 59 3c
       -0.056243714 -0.047882937 0.030686986 0.013274403
0003c0 09 d3 ff 3c 15 60 1b 3e 01 69 08 3d f6 94 0e bd
       0.03122856 0.15173371 0.033303265 -0.03481003
0003d0 0e 5e 11 bd 1c f5 46 3d 04 30 69 bd 36 69 16 be
       -0.03549009 0.0485736 -0.056930557 -0.14688572
0003e0 20 9a 02 3e 92 61 a2 3d c1 74 36 bd 23 59 97 3d
       0.12754107 0.07928766 -0.04454494 0.07390048
0003f0 ed 8f 00 be 7b 88 e0 bd 74 c2 ee 3d d4 e8 f9 bd
       -0.12554903 -0.109635316 0.11658183 -0.122026116

conv3.bias f4 [64]
000000 fc 63 9f 3d 52 0b bf bc f3 3e 58 3d e8 35 0d 3e
       0.077827424 -0.023320828 0.052794408 0.13790095
000010 8c b6 f4 3d 10 ff 48 3e ca 9a 0e 3d fe 6c 37 3d
       0.119488806 0.19628549 0.034815587 0.044781677
000020 29 15 20 3e 0b a4 3d 3e 57 91 68 3b 03 63 00 3e
       0.15633072 0.18519609 0.003548702 0.1253777
000030 8f e4 1b 3e 3b 5e ad 3c 6c 40 19 be 78 17 2e 3e
       0.15223907 0.021163097 -0.14965981 0.1700114
000040 c2 92 7a 3b 77 10 7a 3e af b8 24 bd b7 32 3f bc
       0.0038234447 0.24420343 -0.04021519 -0.011669806
000050 d2 3f 16 3e cd 0e 76 be ea ed db bd 71 9f 7e 3e
       0.14672783 -0.24029084 -0.10738738 0.2486551
000060 eb ac 81 3d 86 49 96 bd 83 0e 04 bd 35 92 8f bd
       0.063318096 -0.07338242 -0.032240402 -0.07010309
000070 7e 59 b3 3d c6 18 80 bc c0 19 41 3d 38 09 83 3e
       0.08757304 -0.015636813 0.047143698 0.2559297
000080 a2 a5 1a 3d 1e 59 3c 3d 82 50 19 bd a0 72 a7 bd
       0.037755616 0.045983426 -0.037430294 -0.0817616
000090 47 4e b2 3c 0a 5c e3 3d fb d4 8b bc 5e 2e 31 be
       0.021765841 0.111015394 -0.01706933 -0.17302844
0000a0 ec 64 ed 3c 55 49 02 3e 0e 47 3e 3c 22 ad 0f 3e
       0.028978787 0.12723286 0.01161362 0.14030889
0000b0 16 e7 fa 3d 6e 72 d1 bd 80 a7 8a 3e 37 d6 27 bb
       0.122511074 -0.10226904 0.27080917 -0.002560986
0000c0 59 bd ca bd 4d 79 47 be 3e 9a 70 ba b9 57 58 3e
       -0.098993964 -0.19479866 -0.00091782573 0.21127214
0000d0 fa 12 b5 bc 92 f0 36 be f3 48 11 be 47 e0 b1 3d
       -0.022103775 -0.17865208 -0.14187984 0.08685356
0000e0 12 b4 af bd 25 51 c0 3e 11 0d d4 3e 5e dd b0 bd
       -0.085792676 0.37561908 0.4141622 -0.086359724
0000f0 66 9b 86 3e ea d5 df bc 7c 8e 3f bd 67 90 07 be
       0.26290435 -0.027323682 -0.046766743 -0.13238679

conv4.weight f4 [64, 64, 3, 3]
000000 74 70 a9 bb 62 f0 86 bd d8 32 c5 bd a2 a0 9c bd
       -0.005170876 -0.06588818 -0.09628838 -0.07647826
000010 0f e2 ca bd 18 7d a5 3d d4 ae b0 bc 5a 39 d9 bd
       -0.099063985 0.080805 -0.02156774 -0.10606642
000020 3c c0 ad 3c 70 e6 45 bd 0b 0c 62 be 5f 20 35 be
       0.021209829 -0.048315465 -0.22074907 -0.1768813
000030 30 06 03 bd 8e 0b f4 bd 3e 6a e8 bd d3 44 e2 bb
       -0.031988323 -0.119162664 -0.11348389 -0.006905177
000040 bb c7 20 3d b5 b9 fd bd bc f5 ff 3d 73 0b 02 3e
       0.039252978 -0.123889364 0.12498042 0.1269968
000050 da e2 d6 3b ee a0 8a bc 1f cb a9 bd c9 af a5 bd
       0.0065578045 -0.01692244 -0.082906954 -0.08090169
000060 f3 e6 62 ba ad c4 0d 3d 28 d0 f7 3c 20 e1 3d 3d
       -0.000865563 0.034611393 0.030250624 0.046357274
000070 e2 0b 8c bc 0d 09 e5 3b 28 0c cf bc b6 81 f3 bd
       -0.01709551 0.0069896043 -0.025274351 -0.11889975
000080 2d cd 0c be e9 1f 16 be cb c0 84 bd 6b cd f5 3c
       -0.13750143 -0.1466061 -0.06482085 0.030005177
000090 1d 98 c0 3c 44 e2 08 3d 1d 7d 86 bd 52 82 9d bc
       0.023510033 0.03341891 -0.06566832 -0.01922718
0000a0 e0 48 5f 3c 24 21 34 3d dc 39 8a bc 4e 1d ba bd
       0.013628215 0.043976918 -0.016873293 -0.09087621
0000b0 06 2f 51 3d 3b dc 9a 3d 5e 79 82 bd 56 13 05 3e
       0.051070236 0.07561537 -0.06370805 0.12995657
0000c0 24 34 92 3d e4 4c 05 3d 39 90 b7 bc 99 84 99 3d
       0.07138851 0.03254403 -0.022407638 0.07495994
0000d0 fe b5 27 3e 03 50 f3 bd 27 98 e8 bc 8e 62 27 bd
       0.16378018 -0.118804954 -0.028392864 -0.040865473
0000e0 08 44 0c bd 68 67 0d 3e dc c3 9a bc 6a af 85 3c
       -0.034244567 0.13808978 -0.018892221 0.016318996
0000f0 f0 75 7d bd ca 3b 19 be f2 2c 8a bd 72 ff 98 bd
       -0.061880052 -0.14964214 -0.06746854 -0.07470597
000100 57 44 a3 bd 88 00 73 bd 6b d6 c6 bc 09 ba a2 bd
       -0.07972019 -0.05932668 -0.024272164 -0.0794564
000110 eb aa 83 39 6b a7 0c be 92 02 0b bb 51 0a 32 3c
       0.0002511361 -0.1373574 -0.0021211249 0.010866717
000120 08 d8 f2 bd 64 c2 01 be 6b ad 8a bc 71 1c 81 be
       -0.11857611 -0.1267181 -0.016928395 -0.25217012
000130 68 92 59 be b8 f8 e9 bc 6f dd ac 3d ea 97 37 bd
       -0.21247256 -0.028560981 0.084406726 -0.04482261
000140 86 08 e5 bc 0e 08 7d 3c 65 63 64 bd ef b1 bf bc
       -0.027958166 0.015443815 -0.055758853 -0.023400275
000150 56 88 e0 ba c1 98 65 3c b6 2e cf 3b 51 f2 33 be
       -0.0017130475 0.01401347 0.006322707 -0.17572905
000160 fd 8b 64 be ec 3c 94 bd 2b 18 31 bd 28 35 c5 bc
       -0.22319026 -0.072381824 -0.04323594 -0.024073198
000170 37 37 82 bd 56 37 b0 bc 75 d1 f5 bd 87 fd 74 bd
       -0.06358188 -0.021510761 -0.120028414 -0.059812095
000180 bc 8f 01 bd 03 d9 41 3c 0c 38 cf bd 31 ad 38 3d
       -0.031631216 0.011831525 -0.10118112 0.045087043
000190 bf d8 8f 3c 00 22 21 3d 9a 00 4d 3d 0f 3b 70 bc
       0.017559407 0.039339066 0.0500494 -0.014662518
0001a0 70 f6 9e bd da 47 fe 3c 5b f3 1a 3d 0e ca 67 3d
       -0.07761848 0.03104012 0.037829738 0.05658918
0001b0 2a e3 fd 3d 8c 91 88 3d ff e3 1f 3d 51 92 10 bd
       0.12396844 0.06668386 0.039035793 -0.03529579
0001c0 e5 c7 05 3d 7c 29 d1 3c 3c 26 2c be bb fb 4b 3a
       0.032661337 0.025532477 -0.1681146 0.0007781346
0001d0 aa cd cb bc 0b 48 84 bd f8 41 4a bd 31 d7 72 3d
       -0.024878342 -0.064590536 -0.04937932 0.059287254
0001e0 f1 e7 3b bd a0 4a 42 be e3 16 2e be 63 5b 80 3d
       -0.045875493 -0.1897378 -0.17000918 0.06267431
0001f0 67 b1 f8 3d bd 03 84 3d b7 76 88 bd c0 0b e1 3b
       0.12143212 0.064460255 -0.06663268 0.006867856
000200 fe 91 a3 3d 34 60 a6 3c 25 3e 62 3c bd d6 3c bd
       0.0798683 0.020309545 0.013808762 -0.046103228
000210 4a 5c 96 3c 52 1f 1d 3d b8 cd 05 bd 1f 47 22 bb
       0.018354554 0.038359948 -0.03266689 -0.002476163
000220 5d 80 a8 bd c7 7a b5 bd e9 37 d6 bd 60 1e 85 bd
       -0.08227608 -0.088613085 -0.10459883 -0.06499934
000230 f0 5e f4 3b 11 93 a6 bc bf f9 9e bd 95 8a aa be
       0.0074576065 -0.020333799 -0.07762479 -0.33308855
000240 3b b5 8a 3d 77 87 aa bc c8 1b 06 be 72 3d 30 bd
       0.06772848 -0.020816548 -0.13096535 -0.04302735
000250 5e 7d 33 be 9e 3e 1f be c0 59 80 3d 64 9b 24 be
       -0.17528293 -0.1555123 0.062671185 -0.16074902
000260 10 66 1b bc ae a5 80 3d 8b 8f a0 3c 1e 86 93 3d
       -0.009484783 0.06281601 0.019599697 0.07203315
000270 cb 0c f4 bd 24 5b 42 be 3e 56 a9 bc 3b aa 8a bd
       -0.119165026 -0.1898008 -0.020671006 -0.0677075
000280 e4 6a 43 be cd bb 35 be 98 6c e8 bc f4 ba 80 3d
       -0.19083744 -0.17747422 -0.028372094 0.062856585
000290 40 e7 d4 bd 3d 61 f2 3d 79 53 0e 3d cf e4 af 3d
       -0.1039567 0.11834953 0.034747574 0.08588564
0002a0 1c b0 9c 3c 44 ff 75 bd 32 fc 57 bd 39 d1 0e bd
       0.019126944 -0.060057893 -0.052730747 -0.0348675
0002b0 42 ff df 3c 08 f3 a7 3d a6 29 63 bd 9a a0 f4 bd
       0.027343396 0.082006514 -0.05545964 -0.11944695
0002c0 0a 90 cd bd bc 18 b5 3d 1e 07 07 3d 7a fa e2 3d
       -0.10037239 0.08842608 0.03296577 0.11082931
0002d0 22 d3 41 bd 73 4f 01 bd a1 0a e5 bd fa a8 3d bd
       -0.047320493 -0.03156991 -0.11183668 -0.046303727
0002e0 36 a6 dc 3c 86 6e 2f bb e4 c2 11 bd df 78 2e bd
       0.026934724 -0.0026768758 -0.035586253 -0.04259574
0002f0 0b 0c 60 bd 34 fa c8 bc a6 c7 14 bc d3 6e da bd
       -0.054698985 -0.024533369 -0.009080803 -0.10665669
000300 82 86 0a be 41 3f c5 bd 33 15 13 bc 7a 71 dd bd
       -0.13527873 -0.09631205 -0.008977222 -0.108126596
000310 30 c9 25 3b fa d9 98 3d 45 5a 3b 3d d6 52 2e 3d
       0.002529692 0.07463451 0.045740385 0.042559467
000320 ea a0 dc 3b 54 ad 17 bb f5 67 3b be 95 a1 19 be
       0.0067330496 -0.0023144083 -0.18301375 -0.15003045
000330 7d b7 df 3d 50 3c 2a 3c 6f df 9f bd 25 7b a1 bd
       0.109236695 0.010390356 -0.078062885 -0.07884816
000340 00 a3 dd 3c 57 3c 11 3e 8c 37 ab 3a d7 6b 70 bd
       0.027055264 0.14183174 0.0013062819 -0.058696594
000350 4b c7 4f bb 6f 24 ff 3c cc 8e ec bd 5b 86 94 3d
       -0.0031704481 0.031145303 -0.11550674 0.07252189
000360 a2 ba 8a 3d bd 55 26 3d 31 43 2b 3d dd 26 a7 bb
       0.06773879 0.04060911 0.041812126 -0.0051010684
000370 d3 de 96 3d 52 46 d3 3c 71 f3 b2 bd 07 c5 90 bb
       0.07366719 0.025790367 -0.08737839 -0.0044180187
000380 ee dd 25 3d 2f 95 8f 3b d8 bd ee bb a1 8c a4 3b
       0.04049485 0.0043817977 -0.0072858147 0.005021647
000390 f3 d8 5e 3c 28 7e 23 3c 3b 56 a5 3b 87 24 18 bd
       0.013601529 0.009978808 0.00504568 -0.03714421
0003a0 ae e5 f1 3c bb 44 27 3e 57 b7 44 3d 56 ea 26 3d
       0.029528465 0.16334812 0.04802641 0.040750824
0003b0 72 c7 1f 3c 24 42 8a bd 96 5c 26 3c b7 04 72 3d
       0.009752141 -0.067508966 0.01015391 0.059086528
0003c0 ab 73 0e be e5 7e 08 be b6 ae 48 bc 02 10 44 3c
       -0.13911311 -0.13329656 -0.012248686 0.011966707
0003d0 74 6f f3 bd fa 30 28 be 3d 0a 0e 3d a0 01 bc bd
       -0.11886492 -0.16424933 0.034677733 -0.091799974
0003e0 8e e9 a5 bd c2 28 00 be 00 49 91 3d 55 ba 6f 3d
       -0.08101188 -0.12515548 0.07094002 0.05852731
0003f0 6d 92 35 3d 5c b2 8e bd 25 c7 0b bd 98 16 5f 3d
       0.044329096 -0.06967613 -0.034125466 0.054464906

conv4.bias f4 [64]
000000 c4 c1 fb 3d 17 ae 83 3d ea 91 20 3e 79 76 9f 3d
       0.12292817 0.064296894 0.15680662 0.07786269
000010 89 73 5b bb c1 e8 b6 3d 5d 40 83 3d 70 91 f9 3d
       -0.0033485612 0.08931113 0.06408761 0.12185943
000020 ad e1 00 3e 6c 05 35 3c 42 76 3a 3d ee 56 17 bd
       0.12586088 0.011048656 0.045522936 -0.036948137
000030 56 31 6d 3d c9 bd 07 3e 22 5b 97 3d c6 51 66 3d
       0.05790838 0.13255991 0.07390429 0.05623033
000040 9e 11 97 3d 7a 58 74 3d 57 9f a3 3c e8 10 a2 bb
       0.07376407 0.05965469 0.01997344 -0.004945863
000050 ab 08 e9 3d 85 b6 db 3d da 70 8f bb ca 28 d6 3d
       0.113786064 0.10728172 -0.0043774666 0.10456999
000060 6d 6e 32 3d 9d d3 92 3d cd c6 be 3c 34 ba 49 3e
       0.04356234 0.07169268 0.023288155 0.19699937
000070 31 a9 8c 3d 4a 86 9b bc d3 39 ab 3d a9 5a 28 3e
       0.06868208 -0.018984932 0.083606385 0.16440834
000080 d5 2d 04 3e 09 59 aa 3d b6 43 c9 bb cf 34 e6 3b
       0.12908109 0.08317763 -0.006142105 0.0070253382
000090 c4 a6 ae 3d b2 b8 3c 3d ea c8 0a 3e f5 0a 89 3d
       0.08527902 0.046074577 0.13553205 0.06691543
0000a0 02 b1 e4 3d 1c 92 54 3c 47 cf 70 3d 89 c2 ef 3d
       0.11166574 0.012974288 0.058791425 0.117070265
0000b0 ea 40 b8 3d 97 5c 6b 3d 6d 09 8a 3c 5b 79 2d bc
       0.089967564 0.057461347 0.016850198 -0.010588015
0000c0 f5 b1 a2 3c 74 39 00 3e ec 9e ca 3d 6f ef d6 bb
       0.019860247 0.12521917 0.09893593 -0.0065593044
0000d0 49 4b 6f 3d 2e 9b f0 bc 4c ec 37 bc 64 ab 00 3e
       0.058421407 -0.02937087 -0.011225771 0.1256538
0000e0 ce 58 f8 3d 14 02 67 3d c0 42 03 3d 58 8e b1 3d
       0.12126313 0.056398466 0.03204608 0.08669728
0000f0 2f bc 1c 3e db 40 de 3c 8f 56 25 3e a0 4d 3e 3e
       0.15306161 0.027130535 0.161463 0.18584299

fc1.weight f4 [128, 1024]
000000 b2 d9 89 be fd be 1f be be 4b 00 3b dc ec b8 3c
       -0.269239 -0.156002 0.0019576396 0.02257388
000010 20 ad 35 be 05 b7 a6 bd 0e 3b 3a bd 6c ed 25 3c
       -0.17741823 -0.08140377 -0.045466475 0.010127407
000020 3b 67 b5 3d 28 42 3c 3d 57 3f 9b 3d a8 98 8b bc
       0.0885758 0.04596153 0.075804405 -0.017040566
000030 d4 cf 13 3d e4 03 02 3c fc ae 77 3d eb 8f b1 3d
       0.036086872 0.007935498 0.060469612 0.08670028
000040 9a e7 dd 3d 79 a9 5f 3d 3b 16 1d bc 75 a1 1a 3d
       0.1083519 0.05460498 -0.00958782 0.037751634
000050 bd 81 11 3d 4f 5a b2 3c 10 fc 19 3e 47 c3 e5 bd
       0.03552412 0.021771578 0.1503756 -0.11218887
000060 3b 78 36 bc ef 58 87 bd 96 8f 12 be cb 40 1d be
       -0.011137064 -0.066087596 -0.14312586 -0.15356748
000070 6e e7 90 bc 91 de 78 3c d3 42 fc bd a1 22 a9 3b
       -0.01768848 0.015189783 -0.12317433 0.005161599
000080 de 90 7c bc 57 57 3e bd 20 94 8e bc 06 ff 01 3e
       -0.015415398 -0.046470013 -0.017404616 0.1269494
000090 93 0f 65 bc 70 da 8d 3c ba 42 3e 3d 37 fd f9 bc
       -0.013980764 0.017316073 0.046450354 -0.03051625
0000a0 ce 95 c2 bb 52 91 dc 3d f2 b5 57 bd 9c 12 2a 3d
       -0.0059382683 0.10769905 -0.05266375 0.041521654
0000b0 b9 f8 99 bc 61 73 c1 3d bb 53 d8 3c ad bf 5f 3d
       -0.018795358 0.09445835 0.026407113 0.054626156
0000c0 1b 73 ce bd b2 f7 58 bd aa 63 6b bd bb 9c 79 bd
       -0.100805484 -0.052970596 -0.057468094 -0.060940485
0000d0 8e a2 46 be 8f 34 28 bd bf 3d 85 bd 3f 01 af bc
       -0.19397947 -0.04106575 -0.06505918 -0.021362899
0000e0 bd cc 3d 3d 82 58 8a 3d 37 b8 b5 bd d5 0e f9 bd
       0.04633783 0.06755163 -0.08873027 -0.12161032
0000f0 78 51 0b bc df 70 98 3d e1 48 6a 3c 47 ac 87 3a
       -0.00850331 0.074434035 0.014299602 0.0010351025
000100 82 8f 13 be 70 22 07 3a d2 7c 71 3d 69 50 aa bd
       -0.14410213 0.0005154973 0.05895693 -0.08316118
000110 e5 c5 45 be 70 74 4a bd 39 ed a0 3d cf da 31 3e
       -0.19313772 -0.04942745 0.07857747 0.17368625
000120 80 45 5b bd b6 de 04 3d 9d 00 9d bd d3 6c 63 bd
       -0.053533077 0.032438956 -0.076661326 -0.055523705
000130 b0 77 33 3d 7d b8 b1 3d f7 00 3e 3c 55 ad 60 bd
       0.043815315 0.086777665 0.01159691 -0.054852802
000140 be 11 b0 3c 6f 3e 69 3d aa eb ba bd f7 ea 1a bd
       0.021492835 0.056944307 -0.091269806 -0.037821736
000150 15 ee f7 3a da 97 0a 3d ec a1 74 bd 32 52 4d 3d
       0.0018915558 0.033836223 -0.059724733 0.050127216
000160 af a9 39 3c 96 98 09 bd b5 0c 95 3d 8e 7d ae 3d
       0.01133196 -0.033592783 0.07277814 0.085200414
000170 64 74 97 bd 62 33 8a 3d 59 02 68 3d 64 e8 b5 3d
       -0.073952466 0.06748082 0.056642864 0.088822156
000180 7e 2d 3c 3d 3c d0 91 3b 6a 23 40 bd 9a b4 da bc
       0.045941822 0.0044498723 -0.046908773 -0.026697446
000190 4f c2 0c be 9b 71 20 bd 44 fc ad bc 4e 3c 0c bd
       -0.13745998 -0.039170843 -0.021238454 -0.0342372
0001a0 ef 18 57 be 5f bc c6 bd 23 3a 32 bd 65 ba c6 bd
       -0.21005605 -0.09703898 -0.043512475 -0.09703521
0001b0 53 ea 9c 3c e2 d0 8e 3d 2e 36 02 3b fe 76 1b 3d
       0.019154703 0.06973435 0.001986872 0.037955277
0001c0 51 3e 91 bc 2e a6 b6 bd ec 85 19 be 9c e5 46 bd
       -0.01772991 -0.08918415 -0.14992493 -0.048558816
0001d0 f0 92 a1 bc 40 7b a5 bd aa f9 0f 3e e1 2d 2c 3d
       -0.019723386 -0.08080149 0.14060083 0.04203594
0001e0 24 6c b4 3d 06 19 93 bd c6 4b 5f 3d 84 da 6d bc
       0.08809689 -0.07182507 0.054515623 -0.01451743
0001f0 ca 2f b4 3d 53 5e 50 bd 93 11 96 bc c7 34 bf 3d
       0.087981775 -0.050871205 -0.018318927 0.09336238
000200 cd 58 fa 3c da 58 33 3c b9 38 2b 3d 19 45 70 bd
       0.030559922 0.010946477 0.04180214 -0.058659647
000210 37 3a e9 bc b3 0f c8 3d fe 30 ad ba b9 ee 8d bc
       -0.028470142 0.097686194 -0.0013213453 -0.017325746
000220 5c fb b2 3d f3 80 ef 3d e1 71 42 bd c9 66 f3 bb
       0.08739349 0.11694517 -0.047471885 -0.0074280244
000230 4c 2c 28 be 1f 2b a9 bd 0b a4 f1 3b 8d 6b 6d bd
       -0.16423148 -0.08260178 0.007374292 -0.057963897
000240 8b b0 00 bd f4 9d bb bb 78 d7 bc bc de 52 0c be
       -0.031418364 -0.0057256166 -0.023051962 -0.13703486
000250 93 d0 d7 3c 15 31 a8 3c f9 61 14 bd 7d ed b2 bc
       0.026344573 0.020531217 -0.036226247 -0.021841759
000260 5f fe ee 3c 05 d9 9d 3c 1c 51 0d 3d 10 48 b0 3d
       0.029174028 0.019268522 0.03450118 0.08607495
000270 40 d7 96 3c 2b ea 01 bd ee c2 e1 3b 97 34 10 3d
       0.018413186 -0.03171746 0.0068896925 0.035206404
000280 4d 36 43 bd 8d a5 6c 3d d1 be 4d 3d 5b c0 e4 bd
       -0.047659207 0.05777507 0.050230805 -0.111695014
000290 11 d0 93 bc ac 08 e4 3b 4d 24 b3 3c 7f b5 31 3d
       -0.01804355 0.0069590416 0.021867895 0.04338598
0002a0 6d 9b 04 bd 42 9d 84 3d 21 33 86 3d 69 47 e2 bc
       -0.032374788 0.06475307 0.06552721 -0.027621942
0002b0 f1 89 a3 3d 2b 87 ba bb c3 4b c2 3d b0 e4 f0 3a
       0.079852946 -0.005692383 0.09487107 0.0018378701
0002c0 f0 0a a3 3d dd f4 32 3d 33 fb dd 3d 3d f7 40 bd
       0.079610705 0.04369055 0.10838928 -0.047110785
0002d0 12 a3 ab 3c 5d dd d7 3d c7 02 d1 bd 42 87 96 bc
       0.020951781 0.105402686 -0.10205608 -0.018375043
0002e0 31 1c d9 bd 8a cb a1 bd 9e ef 01 be 54 da 92 bc
       -0.1060108 -0.0790015 -0.12689063 -0.017926373
0002f0 7a a2 94 bc 42 47 8f 3d 6a 57 cb 3d 43 e7 01 3d
       -0.018143881 0.06996013 0.09928782 0.03171469
000300 70 58 a7 3c d3 ab 10 bb 82 c2 a1 3d 96 05 92 3c
       0.020427912 -0.0022075071 0.078984275 0.01782493
000310 40 eb 96 bd 1d 0d 15 3d 40 31 3e 3d 61 59 9c 3c
       -0.07369089 0.03638946 0.046433687 0.019085588
000320 1e c4 89 bd 9b 2c 7a bd 74 01 47 3d ab c1 47 bd
       -0.067268595 -0.061077695 0.04858537 -0.04876868
000330 44 b0 2e be 4d 9b 4b be 9d c0 96 bc 3f b6 4f 3d
       -0.17059427 -0.19883461 -0.018402392 0.050710913
000340 af 63 e4 3d 1f fd 0a 3c 81 84 a0 3b 81 13 05 3e
       0.11151826 0.0084832 0.004898608 0.12995721
000350 c6 34 c0 3c 64 b8 a9 3b a7 b5 a3 bc 57 0f 0f be
       0.023462664 0.005179452 -0.01998408 -0.13970695
000360 a3 85 53 bd fe 1e f0 ba 0c 9e e7 bd 9f 69 38 bc
       -0.051641118 -0.0018319783 -0.11309442 -0.011255651
000370 d9 02 56 bc 4b 4e ca 3d b1 fb 0d 3e 0d 45 b0 3d
       -0.013062202 0.098782144 0.13865544 0.086069204
000380 73 49 bc bd 52 95 41 3d 5c 55 cf bd ab 05 d4 bd
       -0.09193697 0.047261544 -0.10123703 -0.103526436
000390 06 f8 b2 bd 71 07 fc bc 36 c5 e9 3d 0f 37 fa bd
       -0.08738713 -0.030765267 0.11414568 -0.12217533
0003a0 62 63 09 be 54 dd 70 bd f5 db 1d bd 46 c0 ca bd
       -0.13416818 -0.058804825 -0.038539845 -0.098999545
0003b0 f1 3a 70 3d 25 e5 a6 3d 44 cd 44 3d 96 2b 14 bd
       0.05864996 0.081491746 0.04804732 -0.03617438
0003c0 d6 82 a0 bd f5 a1 8b bd ff 53 10 3d 20 ca 07 bc
       -0.07837455 -0.06818 0.035236355 -0.008287936
0003d0 4f 7f 0f 3c 12 c1 d7 bc 5f 12 aa 3c 92 81 a2 3d
       0.00875838 -0.02633718 0.020760713 0.0793487
0003e0 50 aa 04 be 77 9f b7 bc 2a d5 ef 3c d7 b7 2b bd
       -0.12955594 -0.022414906 0.02927645 -0.04192337
0003f0 8d 96 0d be c5 d5 9f bd 19 bd 31 bd 4d 43 80 3b
       -0.13826962 -0.07804445 -0.04339323 0.003914273

fc1.bias f4 [128]
000000 6a 89 52 3d dc 96 29 3d c9 93 75 bd 7a da 31 3e
       0.05140058 0.041403636 -0.059955392 0.17368498
000010 9e 46 02 3d 2d ae cd 3d 51 12 c1 3d bf 4c eb 3d
       0.031805627 0.10042987 0.09427322 0.114892475
000020 0e 2e 9c 3d dd eb 01 3e d3 02 da ba ec 8f b1 3d
       0.07625972 0.12687631 -0.0016632922 0.08670029
000030 39 dc 86 3c 79 c6 9c 3d dc d8 34 3d 26 ea 7b 3e
       0.016462432 0.07655043 0.044152126 0.2460104
000040 c1 40 b2 3c 86 31 4a 3e 8b 17 43 bd 1c da a5 3d
       0.021759393 0.19745454 -0.047629874 0.08098242
000050 27 17 65 3d 5f e3 53 bd a0 59 7d 3e 5f 98 be 3d
       0.055930283 -0.05173051 0.2474122 0.09306406
000060 af c1 ed 3d 5f dd 16 3d e1 c8 b9 bd bd c6 01 3c
       0.11609208 0.03683221 -0.09071518 0.007920918
000070 fe af 41 bc 48 3e f7 3d c9 a7 89 bc cf e7 04 bc
       -0.011821745 0.12072426 -0.016803639 -0.008111908
000080 5e 4c e4 bd 3f 04 fd 3c de 50 bf 3d cc 26 71 bd
       -0.111473784 0.030885814 0.09341596 -0.05887489
000090 78 4d a6 bd 9e 93 75 3e 7e ed 27 3e cb 01 0d bd
       -0.08120245 0.23982093 0.1639919 -0.034425538
0000a0 c9 59 51 bd 32 b4 13 3c 81 42 20 3d 77 7b d0 bb
       -0.051111016 0.00901513 0.039125923 -0.0063623744
0000b0 1e 8e a9 3e 47 9d 88 3e 97 83 39 bc 2f d1 3a 3e
       0.3311624 0.26682493 -0.011322877 0.1824386
0000c0 aa e9 06 3c 0a a9 18 3e 27 31 0b bb e5 e5 e8 3d
       0.008234421 0.14908233 -0.0021239014 0.11371974
0000d0 d0 51 f8 3c 72 37 12 bd 2b 4a 31 3e 83 4d 85 bd
       0.030312449 -0.035697408 0.17313449 -0.06508925
0000e0 61 64 f4 3d 9f 99 e7 3d 29 f4 a9 3d 41 e9 1d 3e
       0.11933208 0.11308598 0.08298523 0.1542101
0000f0 55 43 91 3d 30 99 5a bd a6 08 8c 3d c1 31 9f bc
       0.07092921 -0.053368747 0.06837587 -0.019432904
000100 24 39 c2 3d 59 97 3a bc 51 88 47 3e bc 00 e1 3c
       0.09483555 -0.011388623 0.19485594 0.02746617
000110 18 15 1a 3e 96 02 9b 3b 19 3d d5 3c 12 e3 1d bd
       0.15047109 0.004730533 0.02603011 -0.03854663
000120 ca 5f 8e 3e cc 4f 2c bd 73 db b4 bd c2 1b 4c bd
       0.27807456 -0.042068288 -0.08830919 -0.04983116
000130 e9 95 95 3b e9 f3 0d 3e 66 50 9b 3e 8b 98 97 3e
       0.00456499 0.13862576 0.30334777 0.2960857
000140 62 25 23 3b a3 55 76 3e 6d b3 84 3c 77 ee 2f bd
       0.0024894108 0.24056105 0.016198838 -0.042952027
000150 0c bc 42 3e e9 11 d9 3d 7c 70 df 3a 33 fd 5d 3a
       0.19017047 0.10599119 0.0017047073 0.00084682106
000160 47 88 35 bb c6 63 40 bd f9 27 7c 3d da 93 09 bd
       -0.0027699636 -0.04697015 0.06156156 -0.033588268
000170 26 73 8e 3e db 66 a0 3c 31 87 cb 3c 03 5b 0e 3c
       0.27822226 0.019580295 0.024844738 0.008688691
000180 6a bd 8f 3d 7f b5 ad 3e 51 94 3d 3e d6 d1 31 3e
       0.0701855 0.33927533 0.1851361 0.17365202
000190 bf 4e 0b 3d ba b9 54 3d e3 22 d7 3d 58 d5 b9 3e
       0.034010645 0.051934935 0.10504701 0.3629558
0001a0 1a a1 c9 3d 56 2d 5f 3e 84 5b 20 3e d6 66 b5 bd
       0.09845181 0.21794638 0.1565991 -0.08857505
0001b0 f1 f0 d4 3c 8d 34 85 3c 61 95 2e 3d f7 d6 1f 3e
       0.025993796 0.01626041 0.042622928 0.15609346
0001c0 a6 84 03 bd dd 66 4a bd 5d 78 32 3e ca 97 0b 3c
       -0.032108925 -0.049414504 0.17428727 0.008520076
0001d0 e8 3f 78 bd 15 2c 13 bc 1a 78 65 3e 02 39 9c bd
       -0.06060782 -0.008982678 0.22409096 -0.07628061
0001e0 f2 f3 9d bd d4 67 43 bc 7f bf 46 bd f5 13 ab 3d
       -0.077125445 -0.01192661 -0.04852247 0.08353416
0001f0 28 90 86 3d 28 1b 63 3d fe 43 0d 3e 7d 67 e3 3c
       0.065704644 0.05544582 0.13795468 0.027759308
